_________________________________________________________________
Layer (type)                 Output Shape              Param #   
=================================================================
input (InputLayer)           (None, 25, 300)           0         
_________________________________________________________________
bilstm1 (Bidirectional)      (None, 25, 200)           320800    
_________________________________________________________________
bilstm2 (Bidirectional)      (None, 200)               240800    
_________________________________________________________________
output (Dense)               (None, 3)                 603       
=================================================================
Total params: 562,203
Trainable params: 562,203
Non-trainable params: 0
_________________________________________________________________
_________________________________________________________________
Layer (type)                 Output Shape              Param #   
=================================================================
input (InputLayer)           (None, 25, 300)           0         
_________________________________________________________________
bilstm1 (Bidirectional)      (None, 25, 200)           320800    
_________________________________________________________________
bilstm2 (Bidirectional)      (None, 25, 200)           240800    
_________________________________________________________________
td (TimeDistributed)         (None, 25, 4)             804       
_________________________________________________________________
crf (CRF)                    (None, 25, 4)             44        
=================================================================
Total params: 562,448
Trainable params: 562,448
Non-trainable params: 0
_________________________________________________________________
Evaluating...
4
5
6
10
17
25
35
56
63
65
67
78
95
99
115
117
118
120
126
127
128
131
134
138
144
147
148
155
161
162
190
191
194
198
201
202
203
207
224
225
226
233
236
242
243
250
254
256
…
