_________________________________________________________________
Layer (type)                 Output Shape              Param #   
=================================================================
input (InputLayer)           (None, 25, 300)           0         
_________________________________________________________________
bilstm1 (Bidirectional)      (None, 25, 200)           320800    
_________________________________________________________________
bilstm2 (Bidirectional)      (None, 200)               240800    
_________________________________________________________________
output (Dense)               (None, 3)                 603       
=================================================================
Total params: 562,203
Trainable params: 562,203
Non-trainable params: 0
_________________________________________________________________
_________________________________________________________________
Layer (type)                 Output Shape              Param #   
=================================================================
input (InputLayer)           (None, 25, 300)           0         
_________________________________________________________________
bilstm1 (Bidirectional)      (None, 25, 200)           320800    
_________________________________________________________________
bilstm2 (Bidirectional)      (None, 25, 200)           240800    
_________________________________________________________________
td (TimeDistributed)         (None, 25, 4)             804       
_________________________________________________________________
crf (CRF)                    (None, 25, 4)             44        
=================================================================
Total params: 562,448
Trainable params: 562,448
Non-trainable params: 0
_________________________________________________________________
Evaluating...
4
1.1685385704040527
5
0.7537040710449219
6
1.260934829711914
10
0.9531853199005127
17
0.8626463413238525
25
0.6633052825927734
35
0.009652376174926758
56
0.3612186908721924
…
