_________________________________________________________________
Layer (type)                 Output Shape              Param #   
=================================================================
input (InputLayer)           (None, 25, 300)           0         
_________________________________________________________________
bilstm1 (Bidirectional)      (None, 25, 200)           320800    
_________________________________________________________________
bilstm2 (Bidirectional)      (None, 200)               240800    
_________________________________________________________________
output (Dense)               (None, 3)                 603       
=================================================================
Total params: 562,203
Trainable params: 562,203
Non-trainable params: 0
_________________________________________________________________
_________________________________________________________________
Layer (type)                 Output Shape              Param #   
=================================================================
input (InputLayer)           (None, 25, 300)           0         
_________________________________________________________________
bilstm1 (Bidirectional)      (None, 25, 200)           320800    
_________________________________________________________________
bilstm2 (Bidirectional)      (None, 25, 200)           240800    
_________________________________________________________________
td (TimeDistributed)         (None, 25, 4)             804       
_________________________________________________________________
crf (CRF)                    (None, 25, 4)             44        
=================================================================
Total params: 562,448
Trainable params: 562,448
Non-trainable params: 0
_________________________________________________________________
Evaluating...
4
Subgraph extracted:
15384 entities
208 predicates
Loading adjacencies..
1.192272424697876
5
Subgraph extracted:
3 entities
4 predicates
Loading adjacencies..
0.7790243625640869
…
