_________________________________________________________________
Layer (type)                 Output Shape              Param #   
=================================================================
input (InputLayer)           (None, 25, 300)           0         
_________________________________________________________________
bilstm1 (Bidirectional)      (None, 25, 200)           320800    
_________________________________________________________________
bilstm2 (Bidirectional)      (None, 200)               240800    
_________________________________________________________________
output (Dense)               (None, 3)                 603       
=================================================================
Total params: 562,203
Trainable params: 562,203
Non-trainable params: 0
_________________________________________________________________
_________________________________________________________________
Layer (type)                 Output Shape              Param #   
=================================================================
input (InputLayer)           (None, 25, 300)           0         
_________________________________________________________________
bilstm1 (Bidirectional)      (None, 25, 200)           320800    
_________________________________________________________________
bilstm2 (Bidirectional)      (None, 25, 200)           240800    
_________________________________________________________________
td (TimeDistributed)         (None, 25, 4)             804       
_________________________________________________________________
crf (CRF)                    (None, 25, 4)             44        
=================================================================
Total params: 562,448
Trainable params: 562,448
Non-trainable params: 0
_________________________________________________________________
Evaluating...
4
1.194603443145752
5
0.7901678085327148
6
1.3128390312194824
10
0.9850773811340332
17
1.0936031341552734
25
0.6586403846740723
35
0.009627580642700195
56
0.3661508560180664
…
